mnist/MNIST_Data/model.pth (torch, 365243 bytes, 8 tensors)

hidden1.weight f4 [32, 1, 3, 3]
00000000: eb3f 483e f0cb 693d 2a3e a63e 5f09 85be
00000010: 6859 f9be 5602 4f3e 47c7 0d3e d286 333f
00000020: b799 44bf 1b1e d93d bf82 97be ce99 98be
00000030: e182 9d3d 1e9f 26bf 6b5e b13e f5e0 8c3e
00000040: 832e ef3e 49ed 803b deb4 ed3e 9a6c cdbb
00000050: fad8 11bf 900d 0cbe a87a 2cbf b803 423f
00000060: ed3e 023f 013d 473c 7c84 153f 2cae 293e
00000070: 02b5 34bf 4262 3ebf 406d 9bbd 89fc 2abf
00000080: f488 143f ef9e f93e 1751 4abf 2036 5c3f
00000090: 91d0 353f 8201 afbc 8d06 9cbe 4f20 3fbf
000000a0: 60cf 2ebe 795f 27bf cef7 56be 5a01 b03e
000000b0: 2e8e dd3e a645 08be a3ba 80be 8cdf babe
000000c0: 3848 42bf fd2b dcbe 2599 573d 065b 573f
000000d0: 7ff2 8d3c 59b9 4d3e 0308 07bf 8b19 54bd
000000e0: a3da 01bf 1722 0d3f c404 753e a353 bd3c
000000f0: 5bb5 153f 0a49 0abf 9a77 953e 0ffc 54bf
00000100: bb1e dcbd 5285 49bf d07e d8bc 7e9c 803e
00000110: 4018 f8be db48 ea3e 3449 09bc 9b81 813e
00000120: 0227 b9bd 1873 9bbe e5bc 3b3e 7d00 1dbf
00000130: 1742 3dbf 0c63 9e3d ec05 0abe d544 97be
00000140: 734b 01bf cd72 2d3e d508 04bf 4313 a83e
00000150: ff5a 783d b63f b7bd d9f0 9f3e d283 de3e
00000160: 0f6f 52bf 722b ad3d d19c 483f 192f 1e3f
00000170: b35f ea3d c061 07bf 7c8f 743e 9141 453f
00000180: 4241 29be 7598 69bf cca4 3c3f b854 4bbd
00000190: 2c2e 27bf 680c 9dbe 9945 3abf 76ce b6bd
000001a0: 1d35 c2bd 0e37 2c3f a94c 423f 37de d73e
000001b0: bb83 cc3e 801b a8bd a7a9 09bf 8c4a a7be
000001c0: 1235 cd3e d99b 07bf a99b c9bd 8057 38bf
000001d0: 64ca d5be 0570 1c3d 7799 173f c847 2dbf
000001e0: 2c03 adbe 0ea8 1e3f c4ae a8be 789a 733e
000001f0: b40e 0a3f 680d 41bd 64c8 323f e9ba 48bf
00000200: 3ef1 55be f07d ef3e ab3d 343f 35f7 19bf
00000210: ce50 143f eb72 fe3e d75c 283f 3316 64bf
00000220: 082a 13bf 5453 1f3f 012a 3dbe a7ad 1d3f
00000230: 85a1 073f a827 1c3b 7eae 94be a5de 093e
00000240: 6d41 1bbe 5277 173f 402c 21bf 1b87 15bf
00000250: 7656 1abf bdf9 1dbf 7123 c23e e3ac a73d
00000260: 292a a73e 49c2 9dbc 27a6 df3e c0fd 09bf
00000270: c99d c33e 2003 3abf 2a32 8f3e e209 7d3e
00000280: 3eba 1fbf 103a 26bf f3ee 9ebd 9522 de3e
00000290: 7089 2c3f 6338 543e 6842 2d3f 1cb1 dbbd
000002a0: 8562 b93e a4b7 023f d1f5 2f3f afbe bcbe
000002b0: 9cc5 31bf 517e 04be 7b2d 20bf d854 09bf
000002c0: a239 eb3e 1483 133f b89d b13e dc59 663f
000002d0: 646d d2be e398 443f 28e3 21be f923 bf3e
000002e0: c461 21be 9edf 213f 1878 153e 1f9b 9d3e
000002f0: c18e f13e d9ea 20bf 8e76 523f 6201 a9be
00000300: 4531 6dbe 2755 4b3f fcfa ec3e 3264 e83e
00000310: 17a7 c93d ce74 6abe 7b4c 1b3f 2458 a8be
00000320: 1273 373f fb55 9a3d e121 833d 1872 873e
00000330: f4ab 75be 63f4 d63d e9f5 53bf 41ca c3be
00000340: 6797 69bf 9605 26bf 1e1b 1e3f 298a 0c3f
00000350: d00a 713e c13d 313f 2ef0 5b3f d1cd cbbd
00000360: c3c2 07bf 8cfd c1be 8199 733e 7154 9abe
00000370: 5c60 39bf c8a9 bcbe c815 72bd 2e0e 4d3f
00000380: a8ec c9be 1827 f83e 0f64 5d3e 8c0d 02bf
00000390: 038a 08bf 757c 623f 23c0 5e3f 61a8 26bf
000003a0: d906 dbbe 58c5 54be 14fc 2ebe 15fb d93e
000003b0: 854d 89be a44e 39bf 4055 363f ec91 18be
000003c0: 2c5c fd3e fe3e 46bf 388e bebe 544d ef3e
000003d0: 878a c13e 949c 3dbf c781 d13e a2ad b33e
000003e0: efea f0be e46c 36be 93c1 4f3f c336 2b3f
000003f0: 8e12 4ebf abc6 4c3c 38ad 903e 19f0 3bbf
0.19555633 0.057079256 0.32469302 -0.25983712 -0.48701024 0.20215735 0.1384555 0.70127594
-0.7679705 0.10601445 -0.2959194 -0.29804844 0.07690979 -0.65086544 0.34642348 0.2751538
0.46715173 0.0039345366 0.46427053 -0.00626905 -0.56971705 -0.13677049 -0.6737466 0.75786924
0.5087727 0.012160541 0.5840528 0.16570348 -0.70588696 -0.7436868 -0.07589197 -0.6679159
0.58021474 0.4875407 -0.79029983 0.8602009 0.7102137 -0.021363024 -0.30473748 -0.74658674
-0.17071295 -0.65380055 -0.20992967 0.3437603 0.43272537 -0.13307819 -0.25142393 -0.36498678
-0.7589145 -0.4300231 0.052636284 0.84123266 0.017327545 0.20090236 -0.527466 -0.051782172
-0.5072424 0.5513014 0.23927599 0.02311117 0.5847985 -0.540177 0.2919281 -0.8319711
-0.10748049 -0.78719056 -0.026427656 0.25119394 -0.48456 0.4575871 -0.008379269 0.25294194
-0.09040643 -0.30361247 0.18333776 -0.6132887 -0.7392897 0.077337354 -0.13478822 -0.29544702
-0.5050575 0.16938324 -0.51575977 0.32827196 0.060633656 -0.08947699 0.3123844 0.43459946
-0.8220071 0.08455552 0.7836428 0.61790615 0.114440344 -0.5288353 0.2388286 0.7705317
-0.165288 -0.91248256 0.7368896 -0.04964134 -0.6530483 -0.30673528 -0.7276245 -0.08926098
-0.09482787 0.67271507 0.75898224 0.42161724 0.39944252 -0.0820837 -0.53774494 -0.32674062
0.40079552 -0.5297218 -0.09844143 -0.72008514 -0.41755974 0.038192768 0.59218544 -0.67687654
-0.33791482 0.6197518 -0.32945836 0.23789394 0.53928685 -0.047131926 0.6983702 -0.784102
-0.20892808 0.4677577 0.704066 -0.60142833 0.579358 0.4969705 0.6576666 -0.89096373
-0.5748601 0.62236524 -0.18473054 0.615931 0.52980834 0.0023827348 -0.29039377 0.13463838
-0.15161677 0.59166443 -0.62958145 -0.5840928 -0.6028818 -0.61709195 0.37917665 0.081872724
0.32649353 -0.019257681 0.43681452 -0.53902817 0.38206318 -0.7266102 0.2796796 0.24710801
-0.6239356 -0.64932346 -0.0776042 0.4338576 0.67397213 0.20724635 0.6767945 -0.1072714
0.36207977 0.51061463 0.6873446 -0.3686423 -0.6944215 -0.12938811 -0.625694 -0.53645086
0.45942408 0.57621884 0.34690642 0.89980865 -0.41099083 0.76795787 -0.1580931 0.37332132
-0.15759951 0.6323184 0.14596593 0.3078241 0.47179225 -0.6285835 0.8221215 -0.33008868
-0.23163326 0.7942681 0.46285236 0.45388943 0.09846323 -0.2289612 0.60663575 -0.32879746
0.7165996 0.07535931 0.06402946 0.26454234 -0.23991376 0.10495832 -0.82797104 -0.38240245
-0.91246647 -0.64852273 0.6176013 0.54898316 0.23539281 0.69234854 0.8591336 -0.09951366
-0.5303156 -0.37888753 0.23789026 -0.3014255 -0.7241266 -0.36848283 -0.059102803 0.8009976
-0.39438367 0.48467326 0.216202 -0.5080192 -0.5333559 0.88471156 0.8701193 -0.65100676
-0.42778662 -0.20778406 -0.17088348 0.42574373 -0.26816955 -0.7238562 0.7122383 -0.14899415
0.49484384 -0.7743987 -0.3721788 0.46738684 0.37801 -0.74067044 0.40919325 0.3509341
-0.4705424 -0.17814976 0.81154746 0.66880435 -0.8049706 0.012498538 0.28257155 -0.73413235

hidden1.bias f4 [32]
00000000: 740e 8a3e 109c 3fbd 5ca5 90bd e6ed abbe
00000010: 20dd a7bd 6585 fabd dc73 4cbe f8fc a33e
00000020: 67fc 6e3e 7cb5 10be fcd9 ce3c a2df 2c3e
00000030: c87a 4ebe ab25 adbe b291 b7be 32de 8cbb
00000040: 5565 7d3e 6b07 90be b1c4 26be a763 ad3e
00000050: 654c 82bd f893 923e e247 3e3e 6891 c83d
00000060: 98df cdbd 42cc acbe 6d69 84be 9a34 a53e
00000070: 92e0 97bd c723 e8bd e639 723e 6903 4c3e
0.26964152 -0.046779692 -0.0706279 -0.3357994 -0.08196473 -0.12232474 -0.19966072 0.32028937
0.23338471 -0.14131731 0.025250427 0.16882184 -0.20164025 -0.338178 -0.35853344 -0.0042989487
0.24745686 -0.2813066 -0.1628597 0.3386509 -0.06362227 0.28628516 0.18582109 0.09793359
-0.10052413 -0.33749586 -0.25861683 0.32266694 -0.0741588 -0.11334949 0.23654899 0.19923176

hidden2.weight f4 [32, 32, 3, 3]
00000000: 90d1 7dbd 4bb3 893d bc14 413d ada3 c13d
00000010: 6fe5 febd 08a8 cfba 8523 043e a81e e0bd
00000020: 4c24 513d 3e23 af3d cb13 1cbd 6a83 f3bd
00000030: 27b0 353e 8b08 aebd aed0 d9bd 2dba 8cbd
00000040: f9a3 f93d 6431 f63c 6f82 fcbc f951 ea3c
00000050: 1405 eb3d 158d 063e 7d3b e63c 3272 0bbe
00000060: e903 123e 0adc d2bc 402b 073d 7335 26be
00000070: 4091 c43d 4941 093e 0c0d 423c 0e8d 0f3c
00000080: cb03 babd e329 ac3c a279 04bd 3b9b 013e
00000090: 63f5 1bbc 4155 0b3e 562d 0f3e 132b 433e
000000a0: 4180 a4bd 9b4a 8cbc 615c cebd 2d4a 533e
000000b0: 6e33 1d3e 244e 703d ebf4 a3bd 9656 b8bd
000000c0: e705 0a3e 11b7 0d3c c560 b13d 423a d93d
000000d0: 5955 a93d 8003 6cba b360 833d b989 13bd
000000e0: 91af ba3d e8a7 653c a994 e9bd 1841 903d
000000f0: 041c 323d 4152 e83c d449 05be 0b81 d9bc
00000100: e28a 87bd 4386 1fbe a801 35be 7c75 02be
00000110: b89c 883d 3295 9bbd bf81 47be 2183 b7bb
00000120: f8b7 03be aac2 78bc d5f3 a2bd 0e1e 26be
00000130: 5bed 88bd 5327 a4bb 6f00 c7bd a89d a83d
00000140: 6c01 febd 2708 283d a1be 883c 0734 fcbd
00000150: 5126 37bd 0171 90bb cd24 c73d 63fc ee3d
00000160: 077a 973d 9925 973d ef5c 873d 3f8c 823d
00000170: 6312 c4bc 6c92 5fbb fb38 42be 4c34 2d3d
00000180: 2083 07be 7651 5fbb 0f44 45bd ab30 06be
00000190: 07ff 263e dded 3a3d ea00 6a3e f3e6 013d
000001a0: d495 8d3d 2532 ec3d 248d 233d c387 8abd
000001b0: 4d9d 14be 2fa8 1ebe a2ef af3c a2f7 e8bd
000001c0: f8ed a0bd b34f f7bd 9074 5ebd 0886 e13c
000001d0: 8696 0b3e 03e4 4cbd cccc 253d 0691 c93d
000001e0: 8502 e83d 424f f63b 5d3b f8bd 2315 08be
000001f0: f893 c0bd 4efc 18be 2344 ebbd f14e 113c
00000200: 5795 9c3d f1f1 753d a6a7 a4bb b0c8 1bbe
00000210: cb00 4c3d 3973 1ebe 142e b7bd efed fbbd
00000220: 2873 19be 18ab 41bd 3ceb db3d 874d dc3d
00000230: 43b1 2e3e 74cb 4c3e b716 a3bd 25ce 9d3d
00000240: e995 9fbd e1b5 63ba 2968 b23d e8ac b8bd
00000250: 3ee2 e7bd 25eb 06be 2dc0 a0bd 1b6f e1bd
00000260: e18f c33d 8fc1 21be d357 99bd 8749 1dbe
00000270: 6020 273d 1d07 8a3c e255 b5bb b203 4ebd
00000280: 398a 3bbd e882 e43d 8961 0fbe 3c91 0bbc
00000290: 0f5c 9d3d 31d9 0fbd 8058 193e 0809 b33c
000002a0: aee0 543d 8a26 53be 8182 22bd f182 99bd
000002b0: 176f d53d 8962 fc3b 4c2b 493e 83db fc3d
000002c0: e485 3a3a 71a4 c43d c1a0 7a3c 987d aabc
000002d0: 6588 a8bc 2bdd c73c 0e80 75bb c2ad bf3d
000002e0: b4e3 033e 3d19 3c3d b847 9dbd 145f 8d3c
000002f0: 5d27 233d 5d00 cdbd 2532 97bd 1ef3 603d
00000300: b18d 69bd 9477 9d3d 36d6 303d b641 b83d
00000310: 41a6 7dbd cec1 06bd b341 083e 2eed 7fbc
00000320: 2613 0cbd 0bd9 ab3d 9593 e83d a7ef 0e3e
00000330: 7aca c73d 69ff 263d cf8e 2cbd febd ccbd
00000340: 4605 a9bd 2330 f03d c148 213e 9df8 483e
00000350: 7448 40be f350 17bd b4b6 30be 8347 9abd
00000360: 4f27 0bbe f75f bf3c 2119 19bd d3e2 aa3d
00000370: a4e1 57bd f47d 2ebc 78a3 5ebd 1d08 7fbd
00000380: eaec 0fbe 6f31 abbd 9060 c03d bed3 17be
00000390: cb2f 07be c8a2 783d 169b eebd 1ce1 903c
000003a0: ded8 e5bc 6f89 043d 7844 a1bb 8d17 323d
000003b0: bf1b e5bd 847f c4bd 14a4 cf3d acf3 a53c
000003c0: 8a7f d43d 75c3 bb3d dfd7 61bd c949 9fbd
000003d0: f67c 253e 8e09 babd 5892 ae3d cb56 41bd
000003e0: 3188 cfbb 7272 bfbd 1c56 f63c f11d dabd
000003f0: 4454 12be fa19 a7bc 42ea d8bd 0ef1 3f3d
-0.061967432 0.067236505 0.047138914 0.09455047 -0.12446105 -0.0015842924 0.12904175 -0.10943347
0.051060006 0.08551644 -0.038104814 -0.118902996 0.17742978 -0.08497723 -0.106355056 -0.06871448
0.121894784 0.030052848 -0.030823914 0.02860354 0.11475578 0.13139756 0.028104538 -0.13617781
0.14259304 -0.025739688 0.03300023 -0.16231327 0.09598017 0.1340381 0.011843931 0.008761657
-0.09082755 0.021016067 -0.03234256 0.12656872 -0.009518954 0.1360674 0.13982138 0.190594
-0.08032275 -0.017125418 -0.10076214 0.20633765 0.1535165 0.05866827 -0.08005699 -0.0900089
0.13478814 0.008649603 0.086610354 0.10606815 0.08268232 -0.0009003207 0.06414928 -0.036020014
0.09115518 0.014017083 -0.11405308 0.07043666 0.04348375 0.028359534 -0.13016444 -0.02655079
-0.06618287 -0.1557856 -0.17676413 -0.12740129 0.06670517 -0.07596816 -0.19483088 -0.0056003486
-0.12863147 -0.01518313 -0.079566635 -0.16222402 -0.06685897 -0.0050095706 -0.097168796 0.082331955
-0.12402615 0.0410234 0.016692461 -0.12314611 -0.044714276 -0.0044080024 0.09723816 0.11669233
0.07396322 0.07380218 0.066095226 0.06374406 -0.023934549 -0.0034114374 -0.18967049 0.042286202
-0.13233614 -0.0034075654 -0.04816061 -0.13104503 0.16308223 0.045637 0.22851911 0.03171439
0.06913343 0.11533002 0.039929524 -0.06764176 -0.1451313 -0.15493844 0.02147657 -0.11375357
-0.07857889 -0.12075748 -0.05431038 0.027529731 0.13631639 -0.050022136 0.040478513 0.09842114
0.113286056 0.0075167725 -0.12120698 -0.13289313 -0.09403223 -0.14939997 -0.114876054 0.008868919
0.07645672 0.060045186 -0.005024868 -0.15213275 0.049805444 -0.15473641 -0.089443356 -0.123012416
-0.14985335 -0.04728231 0.10738227 0.10756975 0.17059807 0.19999486 -0.07963317 0.077053346
-0.07792265 -0.0008686465 0.08711273 -0.09017354 -0.11322449 -0.13175638 -0.078491546 -0.1100752
0.09548927 -0.15796493 -0.07487454 -0.1536008 0.04080236 0.016849095 -0.0055339197 -0.050296493
-0.045786116 0.11157781 -0.1400205 -0.008518513 0.076835744 -0.03511924 0.14975166 0.021854892
0.051972084 -0.2062017 -0.03967524 -0.07495678 0.10421579 0.007702176 0.19645423 0.12346556
0.0007115288 0.09601677 0.015297116 -0.02081184 -0.02057285 0.024397453 -0.003746036 0.093593135
0.1287983 0.045922507 -0.07679695 0.01725725 0.03983246 -0.10009835 -0.07382611 0.054919355
-0.057019893 0.07688823 0.043173037 0.08996908 -0.06192613 -0.03289967 0.13306312 -0.015620513
-0.03419795 0.08391007 0.11356274 0.13958608 0.09755416 0.04077092 -0.04212838 -0.09997176
-0.08252959 0.11727931 0.1575041 0.19626088 -0.18777639 -0.036942434 -0.17257196 -0.07533171
-0.13589214 0.02336119 -0.03737748 0.083440445 -0.052705422 -0.010650147 -0.054355115 -0.062263597
-0.1405522 -0.08359038 0.09393418 -0.14826867 -0.13201825 0.060702115 -0.11650674 0.017685466
-0.028057512 0.03235763 -0.004921492 0.04347949 -0.11186933 -0.09594634 0.10138717 0.020257793
0.10375889 0.0916814 -0.05513751 -0.07777745 0.1616095 -0.09083854 0.085240066 -0.047201913
-0.006333374 -0.093480006 0.030070357 -0.10650242 -0.14289957 -0.020398129 -0.10591556 0.046860747

hidden2.bias f4 [32]
00000000: 5521 76bd 6f5c 1bbd d4c5 9fbc c536 23bd
00000010: c608 4f3d b2b0 0bbd 54f0 b4bc 6631 83bc
00000020: d5a8 b53b 0330 59bd 3cf3 bf3c 33f9 c33c
00000030: ec04 7d3d afce 36bd 1b39 443d a8ac 21bd
00000040: 85dd 61bd f21a 9fbc 1513 88bd 009b dd3c
00000050: 63dc 37bd 6854 863c d8a0 4dbc 5c4e 8bbb
00000060: eb02 30bc 2c0e ddbc 0dfd eabc abd2 69bd
00000070: 6e0e 3bbd bb53 2ebd e568 16bd ca2d 09bd
-0.06009038 -0.03792995 -0.019503511 -0.039847154 0.050545476 -0.034104057 -0.022087254 -0.016014766
0.005543808 -0.053024303 0.023431413 0.023922538 0.061772272 -0.044630703 0.047906023 -0.0394713
-0.055142898 -0.019422028 -0.066442646 0.027051449 -0.04488791 0.01639767 -0.012550555 -0.0042512845
-0.010742883 -0.026984297 -0.028685117 -0.057085674 -0.045668058 -0.04256032 -0.03672113 -0.033490933

hidden3.weight f4 [100, 800]
00000000: c264 4abd 1c7d a4bd a415 c2bd bf6a a23c
00000010: a4ea 813c ef81 1fbd abb6 893c 2514 cfbd
00000020: 304e 763d ebae 803d b9e0 463d 238f 5dbd
00000030: 192b 763a a9ee 903d 4066 e83b f7a1 60bd
00000040: 70d6 823c 4a36 88bc 3f21 97bd fc7b 6fbc
00000050: 400b e2bd 6709 92bc 7f96 45bc 76ad 3d3b
00000060: c5e1 4c3d c1b9 ef3c 41b4 263d fd2c 62bd
00000070: f954 b73c f7b5 24bd eea9 7b3d f1fc 993d
00000080: df6c eebc 4f9d 983d 0d9c 4c3d a6dd 51bd
00000090: 540c 9f3b 86ce 8c3a 43bb 3cbd e001 a8bc
000000a0: a5ea 4bbc 7a68 47bd cec3 cfbc 42d9 393d
000000b0: 294d 353d 04b1 4b3c c94f 353c 1eec c23b
000000c0: e2b2 4f3c 1f1d 413d 82a8 fb39 1d74 303d
000000d0: 8015 79bb 3ea6 1abd 7652 10bd c9be ea3c
000000e0: b5b1 20bd 430b aebd 50a3 913c 0e54 833d
000000f0: 6916 d0bd 5a87 21bd 57f8 27bc 06a5 a93d
00000100: 9f80 7cbd aefa 643d 51b3 953d 87d8 b43d
00000110: 7e3a 60bd 1d78 863d 991f a53d 2aec 963d
00000120: ce85 5c3d 7342 c6bd 8dd3 a3bd 4e00 3e3d
00000130: a69d b53d fa8e 81bd 259c 3cbb 0f18 00bd
00000140: 0056 663d 8090 cd3d 0b6b ec3c c24c 8c3c
00000150: 81fa e7bd 65da 11bd 5df8 a2bd ab23 9fbc
00000160: d8be be3d 83e2 3dbd a846 36bd a2f7 09bd
00000170: a348 233d e4c9 f6bb c05c 463d a644 f43c
00000180: 9fe4 533d 3d0f 3dbc 793a 31bc ca9a 9c3c
00000190: ee3d c1bd cc74 41bd db92 08bc fa06 3d3d
000001a0: eff9 03bd 7d76 6fbd b179 0e3d bd08 273d
000001b0: e337 053e eb93 983c 8ead 97bc 5b00 8a3c
000001c0: 57fe b73c b5e8 4abc c9af f13b 5182 4cbd
000001d0: 812b 79bd a199 893d 0df2 54bd bfd9 343d
000001e0: 1574 783d 6b9a 7b3d 0955 a6bc 1dfa 473d
000001f0: e623 bbbd 07ba 1cbd b921 3a3d 57b2 b1bd
00000200: 4ce9 20bd f4dc 113d 2d8c 8cbd 54af 1f3d
00000210: b878 973c edf2 573c 2aa1 073d b12a a6bd
00000220: 4afc 853a ef6b 9dbd 93d7 ab3d 648d 35bd
00000230: ecb8 773d 8b97 743d 6c45 213d 471f d23c
00000240: dd1d 88bc 2f58 943d c96d 0abc 3583 953b
00000250: a74e a4bd a33d 1abd 828e edbc adb2 91bc
00000260: d553 a53d 89ff 1e3d 1a52 433d f429 01ba
00000270: d16a 12bd 2e9e cdbc 00e0 e7bc a264 213c
00000280: 044a 283c af92 a4bc 5d38 0e3d 84ed 8bbd
00000290: 7a4e 44bd cea2 1b3d 1c7b 94bd a825 9cbc
000002a0: 6ef9 ac3d cc5e 193d cbb3 aabc 39e3 033b
000002b0: d3c0 5abd 8efe bebc 729b 8f3d 99fc 5b3d
000002c0: 8d58 6e3c db71 183c 5e6e 3a3d 503d 8dbd
000002d0: 8439 ff3b 6134 583d 143a 9f3c 2e01 d3bb
000002e0: f386 773d d567 8e3b b3ea e83d f5f5 0abd
000002f0: dd31 623b 56b3 153c 3ff0 29bd 0d50 863c
00000300: 2c72 bcbd a09b be37 897c 47bd be7d 9abc
00000310: aac4 62bc e676 953d 28fa 4b3d 7215 9dbc
00000320: dfae 703c 2d39 52bb 9740 013d ffec 93bd
00000330: 923b aabd 2112 4a3d e19d c73c 760c 853c
00000340: a2fc 7abb 0428 a7bd d3d5 0a3d c192 8f3d
00000350: 2457 64bd b8ac e6bc 5e62 023d 3cf4 593d
00000360: 8d48 8a3d bf4b 38bd 6253 783d 531a 943d
00000370: f69e 31bd edec a53d f84d 863d e9d5 963c
00000380: 03fe 663d 32d5 71ba 83e4 753d d2af 91bd
00000390: 72cd 55bd e773 8dbd 3ebe 64bd edcb 06bd
000003a0: eed8 403d b996 02bc 70f0 a5bc e2f7 98bd
000003b0: b8e7 77bb 206c 103b 195c 72bd eb6f 9fbd
000003c0: 393a d8bd 973d a4bb ecbf 4d3d 03ff 363c
000003d0: 775d a03b 9843 47bd 0f41 aabd 647e ccbb
000003e0: eeec 743d ed41 00bd 7d7f 953d 392e e23c
000003f0: d3ad 843c a4f5 ac3b ec84 463c 64e6 4ebd
-0.049412496 -0.08031675 -0.09476784 0.019826291 0.015858956 -0.038942274 0.016810736 -0.10111264
0.06013316 0.06283363 0.048554156 -0.054091584 0.00093905773 0.07076771 0.0070922673 -0.05484196
0.015971392 -0.01662745 -0.07379388 -0.0146169625 -0.11037302 -0.017826749 -0.012059807 0.0028942502
0.050019998 0.029263379 0.040699247 -0.055218685 0.022379385 -0.040212598 0.061441354 0.07518948
-0.029104648 0.07451879 0.04995351 -0.05123677 0.0048537645 0.0010742701 -0.046077024 -0.020508707
-0.01244608 -0.04868362 -0.025361922 0.04537321 0.04426304 0.0124323405 0.011066386 0.0059485575
0.012676926 0.047146913 0.00048 0.043079484 -0.00380072 -0.037756197 -0.03523489 0.028655427
-0.039231975 -0.08498242 0.017778069 0.064125165 -0.101605244 -0.039435722 -0.01025208 0.08283429
-0.0616461 0.05590313 0.073095925 0.08830362 -0.054743282 0.065658785 0.080626674 0.073692635
0.053838544 -0.09680643 -0.079993345 0.04638701 0.0886796 -0.06326099 -0.0028779593 -0.031272944
0.05623436 0.10037327 0.028859636 0.017126445 -0.11327077 -0.035608668 -0.07957528 -0.019426188
0.09313744 -0.046358597 -0.044500977 -0.033683427 0.039864194 -0.0075313915 0.048428297 0.02981789
0.051731702 -0.011539278 -0.010817164 0.019116778 -0.0943564 -0.047230527 -0.008335794 0.04614923
-0.032220777 -0.05846261 0.034784023 0.040779818 0.130096 0.01862522 -0.018515375 0.016845873
0.022460146 -0.012384583 0.0073756916 -0.049928967 -0.060832504 0.067187555 -0.05198865 0.04415297
0.06065758 0.06142656 -0.02030422 0.04882251 -0.091377065 -0.038263347 0.045442317 -0.08676594
-0.03928499 0.035611108 -0.06862674 0.038985565 0.01849018 0.013180477 0.033112682 -0.081136115
0.0010222283 -0.07686602 0.08390727 -0.044324294 0.06047909 0.059714835 0.039372846 0.02564968
-0.016615802 0.07243382 -0.008449026 0.0045627602 -0.08022814 -0.037656438 -0.028998617 -0.017785395
0.0807263 0.038817916 0.04768572 -0.0004927211 -0.0357464 -0.02509984 -0.028305054 0.009850653
0.010271553 -0.020089475 0.03472172 -0.06832412 -0.047926404 0.03799706 -0.07250044 -0.019060925
0.084460124 0.03744392 -0.020837685 0.002012445 -0.053406548 -0.02331474 0.07012071 0.053707693
0.014547479 0.009304489 0.04551541 -0.0689646 0.007788839 0.052784327 0.019436873 -0.0064393496
0.060431432 0.004345874 0.1137289 -0.03392597 0.0034514584 0.009136995 -0.041488882 0.016395593
-0.09201464 2.2722234e-05 -0.04870275 -0.018858787 -0.013840834 0.07298069 0.049799114 -0.019175265
0.01469013 -0.0032077536 0.03155574 -0.07222938 -0.083121434 0.049333695 0.024367275 0.016241293
-0.0038297554 -0.08161929 0.033895325 0.07010413 -0.055747166 -0.02815853 0.03183209 0.053211436
0.06752119 -0.044994112 0.060626395 0.072315834 -0.043364488 0.08101831 0.0655784 0.018412547
0.05639459 -0.0009225189 0.06003238 -0.07113613 -0.05219788 -0.06906872 -0.05584549 -0.032909323
0.04708188 -0.007970505 -0.020256251 -0.07469155 -0.0037827324 0.0022037104 -0.059169862 -0.077850185
-0.1055798 -0.005012225 0.05023186 0.011169198 0.0048939544 -0.048648447 -0.0831319 -0.006240653
0.059796266 -0.03131287 0.07299707 0.027609931 0.016196167 0.005278306 0.012116652 -0.050512686

hidden3.bias f4 [100]
00000000: c6eb 8ebc ca9a 3bbc e5ad b03c b1c1 febc
00000010: 575c a7bc fdbb 883c 4f08 5f3c a57b 84bc
00000020: 32ea 51bc 3487 adbc a4a4 adbc 380d 94bc
00000030: b078 7abc f49f e23b 38c8 06bd 77a3 213d
00000040: daf2 143d 818a db3c 76ac 013d 702d f03b
00000050: 473b 12bc 6622 85b8 e7b2 cd3c 726e e6bb
00000060: 6d61 cc3c 0e56 963c c716 00bc b691 053c
00000070: 0721 85bc c754 d838 a11a 053d 1a02 543c
00000080: a89d dbbc ddcd c23c 6427 2abc bf6d 3bbb
00000090: e2a3 19bc 3552 c2bc be18 2f3b b5e6 063c
000000a0: fd92 423c 4694 403c 812d 003d 26c9 073d
000000b0: 3b9b cbbc eaf1 fb3c 163e 2f3c 7a92 463b
000000c0: 28b5 163d a1e1 de3c 0051 debb fbb0 843b
000000d0: 2d3f eabc fa33 08bd f492 02bd de91 78bc
000000e0: cbeb 27bb 7e36 b93c 5a4e 063d 7cb9 34bc
000000f0: 0835 9e3c 8613 9f3c 5adc dcbb 1a89 4d3c
00000100: e40f 3abb 2057 97bc a828 89bc 7a3b 32bc
00000110: 928e ab3c a2d8 1bbb e1be d33c a333 963a
00000120: a878 57bc 5523 003d 02b4 6b3a 0887 9abc
00000130: 1b05 31bc 7cb0 fcbc 04fb adbb d543 40bc
00000140: 4585 33bc b11e fa3c fb90 27bd 4d80 9b3c
00000150: 3439 b33c c439 85bb 0fc7 17bc 6acf 893c
00000160: 95de 06bd 0a20 e23c 4dc9 e03c 602b 65bc
00000170: b8ba 873c bb67 873b acca 05bc 3207 023d
00000180: 8874 8ebc a8a2 86bb 65bc 7abb 3b46 053d
-0.01744641 -0.011450479 0.021567294 -0.031098219 -0.020429773 0.016691202 0.013612821 -0.01617224
-0.012812184 -0.021182634 -0.02119667 -0.01807271 -0.015287563 0.0069160406 -0.032905787 0.039462533
0.036364414 0.026799442 0.031658612 0.0073296353 -0.008925266 -6.3483414e-05 0.025109721 -0.007032209
0.0249488 0.018351581 -0.007817931 0.008152416 -0.0162511 0.000103154736 0.0324961 0.012939954
-0.026808575 0.023779804 -0.010385368 -0.002859935 -0.009377452 -0.02372084 0.0026717628 0.008233716
0.011875865 0.011754101 0.031293396 0.033150814 -0.024854293 0.030755002 0.010695955 0.003029971
0.036793858 0.027207198 -0.0067845583 0.004049418 -0.028594578 -0.033252694 -0.031878427 -0.015171496
-0.0025622721 0.022608992 0.032789566 -0.011030551 0.019312397 0.01941849 -0.006740135 0.012544895
-0.002839082 -0.018474162 -0.01674302 -0.010878438 0.020942006 -0.0023780246 0.025847854 0.0011459481
-0.013151325 0.031283695 0.0008991362 -0.018863216 -0.01080444 -0.030845873 -0.0053094644 -0.011734922
-0.010957067 0.030532213 -0.04090975 0.018982077 0.021877863 -0.004065724 -0.009263768 0.016822536
-0.032927115 0.027603168 0.027439738 -0.013987392 0.016568527 0.0041322387 -0.0081659965 0.031745143
-0.01738955 -0.0041087456 -0.0038259265 0.03253768

hidden4.weight f4 [10, 100]
00000000: 43e2 3dbe 3b22 583d f45e e03d 81d9 b8bd
00000010: 3764 a1bd 4977 66be e165 42bd 7713 553e
00000020: aa18 263e 208d dabd ec2d 36be 3f8b a5bd
00000030: 8d73 6a3e 3c0a 36be 1f73 453b 5951 95bd
00000040: ad54 69be 31ad 4b3e f309 d33d 09d5 773e
00000050: 69d2 52bc d64d 1dbe adcf 183d d5bb 44be
00000060: 678a 023e f01f 5bbe fb77 893e da6d 62be
00000070: 3ce7 6abe c8b4 60be b674 84be bf79 823d
00000080: 2eb9 25bd d2c9 2c3e eba4 d93d ca42 963e
00000090: 1314 2f3e 7b0f 92bd b031 5d3e 6ba7 58be
000000a0: 7392 73bd fb3b 093e 3b0c 113d 8315 423e
000000b0: a15b 61be 6d24 1f3e 1afc 003e ee3a 8f3d
000000c0: 07d8 b33e 8541 773d a4a6 39be 6702 893e
000000d0: c92b 7b3e b06e 1b3e 6cdb 77bd 2790 5fbe
000000e0: 624b 67be 94be 453e 67f3 4cbb d2c3 973b
000000f0: 937d bebd e512 23be 35f6 90be b6a5 a0bd
00000100: baaf 9b3e 9b0b 323e 3149 513e ac9f 85bd
00000110: b822 953e 26a0 57be 2660 85be 6881 88be
00000120: 2804 e4bd 76ce 0abe 9616 cfbd 266c 4bbe
00000130: e4a5 ca3d 3860 c7bd 8a8e bbbe 34e2 ad3e
00000140: 33ef 38bd b437 8e3e 16fb 3abe 5be3 59bc
00000150: b506 813e 410e 0c3e 78e4 973d 3494 573b
00000160: 3485 263c c0d0 34be e41b 02bc 7fcb f73b
00000170: d121 22be 338a 26be c42f b4bc 5e5a 3f3e
00000180: 4d2a 0cbe 5200 e23d 4a65 be3d 840d d2bc
00000190: 671a 04be 470c 06bd d78a eb3d b9e3 0dbe
000001a0: 83fc 4cbd 2d17 083e d39e 073d 84b0 87bd
000001b0: 565d 4b3e 7fff 993d 3d5b fb3d e6e9 193d
000001c0: b66e bebc ec56 91be 4e33 c3bc 011b 853e
000001d0: a763 4e3e 2dd2 2a3b d354 4abe b82a 5b3e
000001e0: 00fc 1ebe 05fd a03d d649 8abe 6af8 a4bc
000001f0: 8fce 293e a6f1 4f3e 6689 18be 23ac 10be
00000200: a2bb e3bc d6f9 0b3e cba1 ef3d d5be 3e3e
00000210: 3082 8fbd 85df 53be c655 e2bd 0525 99bd
00000220: 7637 6c3e 5f52 1f3d e150 113e 5520 c6bd
00000230: 4bba 7a3e 293b 39be 83a1 693e 2ea0 773e
00000240: 0be2 593a 1164 613d f40c d93d 6cf3 7b3e
00000250: b4f8 093d 2316 95bd 8ec1 8fbe 6bcd 98bd
00000260: 3d82 723e 8744 6b3d c528 39be 66b9 41be
00000270: de74 133e befa a6bd dfec d83c da5c 23be
00000280: 5684 d43d ccd2 873e 1aef 4abd 1e42 8ebc
00000290: 66ea 313d 0409 7d3e 3047 cc3d fba1 d2be
000002a0: 5311 9f3d fd53 453e ff6f e9bd 8b2a e2bd
000002b0: a42e 63bd 50da 393e e323 5fbe ffad 443e
000002c0: 4e45 abbd bfef 91bd cfe4 0c3e b860 23be
000002d0: ff17 a83e 356b adba f4a9 8dbd e650 8e3e
000002e0: 82e5 cd3d 257c 853c d6e5 15be e411 41bd
000002f0: aee1 07be 736c 3fbc 9049 6abe b22b 0bbe
00000300: ad59 433e 8595 a1bd e606 2b3d 14ad 203c
00000310: eb84 953e fad7 de3d 1e6d 863e 05de 5b3e
00000320: 1555 f03d 986f 603e e668 5bbe db03 8d3e
00000330: 58c8 80bc 687f 80ba a083 6abe 90b7 5cbe
00000340: 0c4d a63d f1ab 58be 5944 253e 4a3e a73d
00000350: 0622 52be 2b40 433e de87 8bbe a8ef 8e3e
00000360: 15b4 38be e8c3 90be 9716 213e 2037 363e
00000370: dc4f 36bd 2a66 aa3d 6fa7 a93d d742 d0bd
00000380: 4cba 0a3d 640a 8d3b e8d9 43be c6ba 073e
00000390: 2682 cabd 4c54 c33d a255 3bbe d39a 913e
000003a0: e25b ed3d 5a99 41be 584d 913e b564 a13e
000003b0: 86d4 98be 98bd 18bd 295c 97be f061 3ebd
000003c0: 7fd1 ba3d e84f 333e 1c57 97be 8753 74be
000003d0: 6514 f7be f1e2 5c3e eda5 8b3e 50b3 d43d
000003e0: 152d 8c3d 17aa a23d ad87 833e 21a2 c2bd
000003f0: 8769 0a3e d821 8e3d 3483 563e 58f6 b73c
-0.18543343 0.05276702 0.10955611 -0.090258606 -0.078804426 -0.22506441 -0.04746044 0.20808206
0.16220346 -0.10671449 -0.17790955 -0.080832 0.22895642 -0.17777342 0.0030128432 -0.072909065
-0.22786207 0.19890286 0.10304632 0.2420236 -0.0128675485 -0.15361723 0.03730743 -0.19212277
0.12748109 -0.21398902 0.2684935 -0.22112218 -0.22939771 -0.21943963 -0.25870293 0.063708775
-0.040459804 0.16873863 0.10627159 0.2934783 0.17097501 -0.07131859 0.21600986 -0.21157615
-0.059465837 0.13401787 0.035412055 0.18953519 -0.2200761 0.15541239 0.12596169 0.06993662
0.35125753 0.06036522 -0.18129975 0.26759645 0.24528421 0.15178943 -0.06051199 -0.21832334
-0.2258735 0.19310981 -0.0031273009 0.004631498 -0.09301295 -0.15925176 -0.2831284 -0.07844107
0.30407506 0.1738724 0.20438077 -0.065245956 0.2912805 -0.21057186 -0.26049918 -0.2666123
-0.11133605 -0.13555321 -0.1011173 -0.19865474 0.098949224 -0.09735149 -0.36632186 0.33961642
-0.045149993 0.27776873 -0.18259844 -0.013298835 0.2520043 0.13677312 0.07416624 0.0032894732
0.010163594 -0.17657757 -0.00794122 0.0075621004 -0.15833212 -0.16263656 -0.021995433 0.18686816
-0.13688011 0.11035217 0.09296663 -0.02564121 -0.12900697 -0.032726552 0.11501091 -0.138564
-0.0500455 0.13290091 0.03311045 -0.066254646 0.19859824 0.07519435 0.12273262 0.03757658
-0.02324615 -0.2838663 -0.023828175 0.25997165 0.20155202 0.0026065216 -0.1975892 0.21403015
-0.15525818 0.0786076 -0.27009457 -0.020137984 0.16582702 0.20307025 -0.14896163 -0.14128165
-0.027799431 0.13669524 0.117007814 0.18627484 -0.07007253 -0.20690735 -0.11051516 -0.07477764
0.23068032 0.038896915 0.14191009 -0.096741356 0.24485128 -0.18088974 0.22815518 0.24182197
0.0008311576 0.05502707 0.10598174 0.24604577 0.033684447 -0.07279613 -0.28077358 -0.07461055
0.23682494 0.0574384 -0.18081959 -0.1891838 0.1440005 -0.08153294 0.026480136 -0.15953389
0.103768036 0.26528013 -0.04954443 -0.017365512 0.04343643 0.2471047 0.099745154 -0.41139206
0.07766976 0.1927032 -0.11398315 -0.11043271 -0.0554644 0.18149686 -0.21791033 0.19206999
-0.08362828 -0.07125806 0.13759159 -0.15954864 0.32830808 -0.0013230803 -0.069171816 0.27796096
0.10053541 0.016294548 -0.14638457 -0.047136202 -0.13269684 -0.011683571 -0.22879624 -0.13590887
0.19077177 -0.07889847 0.041754626 0.00980689 0.2920297 0.10881038 0.26255125 0.21471412
0.11734978 0.2191757 -0.21426734 0.27542004 -0.015720531 -0.0009803595 -0.22901773 -0.21554399
0.08120164 -0.2115934 0.16139354 0.081661776 -0.20520791 0.19067447 -0.27252096 0.27917218
-0.18037446 -0.28274465 0.15731274 0.17794466 -0.044509754 0.083202675 0.082838885 -0.10168999
0.033869073 0.004304217 -0.19126093 0.13254842 -0.09888105 0.09537563 -0.18294385 0.28438434
0.11589791 -0.18906155 0.2837932 0.31522146 -0.29849643 -0.037290186 -0.295625 -0.04648012
0.091219895 0.1751095 -0.29558647 -0.23859988 -0.48257747 0.21570946 0.2727503 0.10385764
0.06844536 0.07942598 0.2568945 -0.0950358 0.13516818 0.06940049 0.20948488 0.022456333

hidden4.bias f4 [10]
00000000: f104 b7bd 7e4b e93d 1d6a aebd 07a9 dbbc
00000010: 6152 b1bd 7509 bfbc 775e a83d da97 36bc
00000020: 1eb6 6abd 60c6 9c3c
-0.089364894 0.11391352 -0.08516333 -0.026813997 -0.08658291 -0.02331994 0.08221143 -0.011144603
-0.057302587 0.019137561
